=========================================================================================================
Layer (type:depth-idx)                                  Output Shape              Param #
=========================================================================================================
MaskedVQVAE3D                                           [2, 4096]                 --
├─PointGridEncoder: 1-1                                 [2, 128, 16, 16, 16]      --
│    └─MiniPointNet: 2-1                                [2, 64, 128]              --
│    │    └─Sequential: 3-1                             [2, 64, 32, 128]          18,048
│    └─Linear: 2-2                                      [2, 64, 128]              16,512
│    └─Sequential: 2-3                                  [2, 128, 16, 16, 16]      --
│    │    └─Conv3d: 3-2                                 [2, 128, 16, 16, 16]      442,368
│    │    └─BatchNorm3d: 3-3                            [2, 128, 16, 16, 16]      256
│    │    └─GELU: 3-4                                   [2, 128, 16, 16, 16]      --
│    │    └─Conv3d: 3-5                                 [2, 128, 16, 16, 16]      442,368
│    │    └─BatchNorm3d: 3-6                            [2, 128, 16, 16, 16]      256
│    │    └─GELU: 3-7                                   [2, 128, 16, 16, 16]      --
├─GeometricMasker3D: 1-2                                [2, 4096]                 --
│    └─LayerNorm: 2-4                                   [2, 4096, 128]            --
│    └─Sequential: 2-5                                  [2, 4096, 1]              --
│    │    └─Linear: 3-8                                 [2, 4096, 64]             8,256
│    │    └─GELU: 3-9                                   [2, 4096, 64]             --
│    │    └─Linear: 3-10                                [2, 4096, 1]              65
│    │    └─Sigmoid: 3-11                               [2, 4096, 1]              --
│    └─Embedding: 2-6                                   [2, 1]                    40
│    └─Linear: 2-7                                      [2, 4096, 64]             8,192
├─VQEmbeddingEMA: 1-3                                   [8192, 64]                --
├─CategoryClassifierHead: 1-4                           [2, 40]                   --
│    └─Embedding: 2-8                                   [2, 4096, 256]            65,536
│    └─Sequential: 2-9                                  [2, 4096, 256]            --
│    │    └─Linear: 3-12                                [2, 4096, 128]            512
│    │    └─GELU: 3-13                                  [2, 4096, 128]            --
│    │    └─Linear: 3-14                                [2, 4096, 256]            33,024
│    └─MultiheadAttention: 2-10                         [2, 4096, 256]            263,168
│    └─LayerNorm: 2-11                                  [2, 4096, 256]            512
│    └─Sequential: 2-12                                 [2, 4096, 1]              --
│    │    └─Linear: 3-15                                [2, 4096, 128]            32,896
│    │    └─GELU: 3-16                                  [2, 4096, 128]            --
│    │    └─Dropout: 3-17                               [2, 4096, 128]            --
│    │    └─Linear: 3-18                                [2, 4096, 1]              129
│    └─Sequential: 2-13                                 [2, 40]                   --
│    │    └─LayerNorm: 3-19                             [2, 256]                  512
│    │    └─Linear: 3-20                                [2, 256]                  65,792
│    │    └─GELU: 3-21                                  [2, 256]                  --
│    │    └─Dropout: 3-22                               [2, 256]                  --
│    │    └─Linear: 3-23                                [2, 40]                   10,280
├─GeometricFingerprintHead: 1-5                         [2, 128]                  --
│    └─Sequential: 2-14                                 [2, 2048, 1]              --
│    │    └─Linear: 3-24                                [2, 2048, 32]             2,080
│    │    └─Tanh: 3-25                                  [2, 2048, 32]             --
│    │    └─Linear: 3-26                                [2, 2048, 1]              33
│    └─Sequential: 2-15                                 [2, 128]                  --
│    │    └─Linear: 3-27                                [2, 128]                  8,320
│    │    └─LayerNorm: 3-28                             [2, 128]                  256
├─VolumetricDemasker3D: 1-6                             [2, 4096, 128]            64
│    └─Embedding: 2-16                                  [2, 4096, 64]             262,144
│    └─TransformerEncoder: 2-17                         [2, 4096, 64]             --
│    │    └─ModuleList: 3-29                            --                        149,376
│    │    └─LayerNorm: 3-30                             [2, 4096, 64]             128
│    └─Linear: 2-18                                     [2, 4096, 128]            8,320
├─OccupancyDecoder: 1-7                                 [2, 2048]                 --
│    └─Sequential: 2-19                                 [2, 2048, 1]              --
│    │    └─Linear: 3-31                                [2, 2048, 256]            33,024
│    │    └─GELU: 3-32                                  [2, 2048, 256]            --
│    │    └─Dropout: 3-33                               [2, 2048, 256]            --
│    │    └─Linear: 3-34                                [2, 2048, 128]            32,896
│    │    └─GELU: 3-35                                  [2, 2048, 128]            --
│    │    └─Dropout: 3-36                               [2, 2048, 128]            --
│    │    └─Linear: 3-37                                [2, 2048, 64]             8,256
│    │    └─GELU: 3-38                                  [2, 2048, 64]             --
│    │    └─Dropout: 3-39                               [2, 2048, 64]             --
│    │    └─Linear: 3-40                                [2, 2048, 1]              65
=========================================================================================================
Total params: 1,913,684
Trainable params: 1,913,684
Non-trainable params: 0
Total mult-adds (Units.GIGABYTES): 7.25
=========================================================================================================
Input size (MB): 0.16
Forward/backward pass size (MB): 297.09
Params size (MB): 6.60
…
